tests/regression/for_daniel_new/gold/model.pt (torch, 13098 bytes, 5 tensors)

weight f4 [10, 4]
000000 3c 57 3f be 00 16 36 bf 7a 49 c3 be a4 a6 b9 bd
       -0.18685621 -0.7112732 -0.38141996 -0.09064987
000010 14 7c 10 3d 38 c3 2e 3f 72 45 62 3e b6 94 54 3d
       0.03527458 0.6826663 0.22096804 0.051899634
000020 e5 96 89 bd c7 5e 45 bc eb a4 85 be 4a 43 57 bc
       -0.06718234 -0.012046522 -0.26102385 -0.013138602
000030 55 89 8c 3c 6e a2 87 c0 43 9e 7f 3c 52 4c b8 bc
       0.017155329 -4.238578 0.015601697 -0.02249733
000040 2a a8 e4 3f c1 c4 1c bd 7a c4 8d bd d5 24 36 c1
       1.786382 -0.038273577 -0.069222406 -11.383992
000050 c6 8b d5 3e ab a0 59 3c 5c b9 82 bd b4 46 15 3e
       0.417082 0.013282935 -0.06383011 0.14577752
000060 dc 93 5d be 5d 19 4e bc 7c db f7 bd ff 22 a7 c0
       -0.21638435 -0.012579289 -0.1210241 -5.223022
000070 ab ed df bf a3 86 ea 3c 02 1d a3 3d 39 16 87 bf
       -1.7494406 0.028628653 0.07964517 -1.0553657
000080 7c fd 35 bd 32 03 c4 3c 3a 6f aa c0 a5 fc 13 3d
       -0.044431195 0.023927305 -5.3260775 0.036129612
000090 a9 87 6a bd c6 72 1d bc e2 fe b2 bf 56 ef a1 bc
       -0.05725828 -0.009609884 -1.3984034 -0.019767445

bias f4 [10]
000000 89 5c 39 c0 6f 93 d9 3f 44 2a 61 bf 45 41 12 c1
       -2.896273 1.6998118 -0.8795512 -9.140935
000010 50 ef 96 c0 99 c6 8e 3f 81 0c 7a c0 84 af 88 c0
       -4.716713 1.1154357 -3.9070132 -4.2714252
000020 ee 56 3e c1 48 d6 69 c0
       -11.896223 -3.6537037

weight f4 [10, 10]
000000 0a d0 89 c1 45 bf 8c c1 ac 47 25 41 e0 2e a2 c0
       -17.226582 -17.593393 10.329998 -5.068222
000010 48 7d 3a 40 74 9c 35 c0 fd f8 48 be dd d3 ec 3f
       2.9138966 -2.8376741 -0.19626231 1.8502156
000020 9b 82 b7 42 e8 c3 d7 40 54 c5 39 c0 03 71 a3 3f
       91.75509 6.7426643 -2.902669 1.2768863
000030 31 1a c6 bf 89 aa 57 c1 2d bc 8b 3d 26 a3 8f 3f
       -1.5476743 -13.479135 0.06823001 1.1221664
000040 5c c8 d0 3d f4 36 8c 3d 94 d9 13 41 f7 39 58 41
       0.101944655 0.06846419 9.24062 13.514152
000050 39 09 c5 40 9b f4 0f 40 42 bf ed c0 fe da 62 41
       6.157376 2.2493045 -7.429597 14.178465
000060 77 63 7f 3f fc aa 96 bf 42 ff 0b bf eb 6e 36 3f
       0.99761146 -1.177093 -0.5468637 0.71263
000070 b9 aa 42 42 5e bd 7b bf 69 07 0d 3e 2e e1 0f bd
       48.66672 -0.98335826 0.13772358 -0.035126857
000080 4b 1e e3 3f 12 ea 5a c0 ae 73 17 c1 11 1c 8f c0
       1.774362 -3.4205365 -9.465742 -4.472176
000090 96 4b 19 c0 55 bc c3 c0 81 22 fd c0 7d 61 1d 40
       -2.3952384 -6.1167397 -7.910462 2.4590752
0000a0 5f 8b 04 41 36 bb c2 3f f4 71 b4 be fc 22 8d 41
       8.284026 1.5213382 -0.3524319 17.642082
0000b0 eb f1 c5 bf 2b 44 e1 3e bb 83 12 3e f6 c5 95 bf
       -1.5464453 0.4399732 0.14308064 -1.1701038
0000c0 70 cc 14 c2 11 c8 fd 40 70 14 21 c0 71 3d 47 40
       -37.199646 7.930672 -2.5168724 3.113125
0000d0 df f3 40 c0 4c be bc c1 a7 5f 17 40 58 9d 0e 40
       -3.0148847 -23.592918 2.3652132 2.2283535
0000e0 02 d5 14 3d 0a 03 e9 3f 1e db 27 42 2e 48 3a c1
       0.036335953 1.8204052 41.96398 -11.642622
0000f0 af a7 65 41 ab e1 6f 40 06 91 5a c1 65 a5 1b c2
       14.353438 3.7481487 -13.660406 -38.91152
000100 3e 29 5b 3c 0c cb 5f 40 f0 1f 7a 3c 4f 6e e2 3e
       0.013376532 3.496768 0.015266404 0.44224784
000110 85 ac 04 41 ee 5f 13 c0 f7 0b de c1 2c a4 d7 c0
       8.292119 -2.30273 -27.755842 -6.7387905
000120 ff 92 a3 40 bf b9 e0 c1 83 b9 b8 41 5a 68 bd c0
       5.111694 -28.090696 23.090582 -5.918988
000130 a6 76 79 40 82 72 a8 41 c8 a9 6e c2 ed 9a 3b c1
       3.8978667 21.055912 -59.665802 -11.725324
000140 ec 18 37 c0 70 e8 25 bf e0 8e ab 3a 5b 18 46 c1
       -2.860896 -0.64807796 0.0013088845 -12.380946
000150 04 9e 8f bf 58 5c 34 40 43 67 ce 3f e6 61 b6 bf
       -1.1220098 2.8181362 1.6125263 -1.4248626
000160 be 9f b2 c0 ce e7 83 c0 11 8d b4 40 5a 5f 0d 40
       -5.582 -4.1220465 5.64222 2.2089448
000170 84 de 93 3f ea 1a 1b 41 f8 c9 8f 3e d2 23 d9 bf
       1.1552281 9.694071 0.28083777 -1.6964056
000180 cb 76 c6 3e 8a f5 4d 3d 1d d7 3e c1 45 22 55 3f
       0.38762507 0.050282992 -11.927518 0.83255416

bias f4 [10]
000000 e1 14 30 41 d3 9e 9f c0 02 4d 5e 3f 9e d7 44 41
       11.005097 -4.9881377 0.86836255 12.302641
000010 ac 42 5e c0 67 45 5c bf 92 d8 45 40 d5 bb 81 c1
       -3.4728193 -0.860434 3.0913434 -16.216715
000020 9c a3 81 c0 5c df 09 c0
       -4.051222 -2.1542578

weight f4 [1, 10]
000000 f0 5e 2e bf ef 92 c0 c0 01 6c 48 40 29 49 96 bf
       -0.68113613 -6.017936 3.131592 -1.1741077
000010 0a 86 d7 40 59 33 77 40 7b 43 8f c0 e8 8b 35 c0
       6.735112 3.862509 -4.4769874 -2.8366642
000020 d3 8a 90 41 ed 37 b8 c0
       18.067785 -5.756827
