tests/regression/for_daniel_new/gold/model.pt (torch, 13356 bytes, 5 tensors)

weight f4 [12, 4]
0.72108084 0.0017873143 -0.11293309 -2.3221347 0.12265829 -4.163814 0.29239008 -0.023916587
0.09423009 0.97489756 1.3349216 -0.18928792 1.3741498 0.00019735242 0.09431096 -18.930374
-0.28400376 0.0042605987 -0.38153812 -0.06508982 0.028025301 -3.656285 0.06709669 -0.01170819
1.1795923 0.057237066 0.34298697 1.2856841 -0.17136292 -0.039257366 1.0410415 -0.05899252
-0.5578345 -0.11667047 -0.34673205 3.563787 -0.021381805 0.018563844 -4.3379216 0.021535164
0.4272637 0.21967554 1.293875 0.13352601 0.49698412 0.0056242915 -0.13090952 0.1320786
00000000: c198 383f 5144 ea3a 7749 e7bd db9d 14c0
00000010: 4534 fb3d f73d 85c0 27b4 953e b8ec c3bc
00000020: b5fb c03d e392 793f b6de aa3f b1d4 41be
00000030: 24e4 af3f 63f0 4e39 1b26 c13d 6871 97c1
00000040: f168 91be 7e9c 8b3b f758 c3be d04d 85bd
00000050: 5195 e53c 9300 6ac0 fd69 893d b5d3 3fbc
00000060: e1fc 963f 6a71 6a3d fd9b af3e 4c91 a43f
00000070: c379 2fbe 55cc 20bd d940 853f 24a2 71bd
00000080: 3ece 0ebf edf0 eebd dd86 b1be 1615 6440
00000090: e528 afbc 3413 983c 41d0 8ac0 836a b03c
000000a0: 4fc2 da3e a0f2 603e b29d a53f 0bbb 083e
000000b0: b474 fe3e fa4b b83b 250d 06be 9d3f 073e

bias f4 [12]
-0.67701316 -7.2199507 2.9772837 -10.402518 0.6517492 -7.674232 3.4002607 2.6551688
0.45125836 -9.614018 1.6932263 1.2347519
00000000: bc50 2dbf d609 e7c0 d18b 3e40 b770 26c1
00000010: 09d9 263f 4f93 f5c0 df9d 5940 49ee 2940
00000020: 560b e73e 05d3 19c1 a4bb d83f 5a0c 9e3f

weight f4 [12, 12]
-0.4036415 6.2160673 1.0506887 0.44714412 -2.6661901 -48.80665 0.043135844 0.04472884
-0.114294335 -1.2035851 -1.435732 0.11065525 -0.17950875 -4.761827 0.45746604 -0.058594238
-5.670262 14.888343 0.32674855 4.795246 -0.46519163 -2.602942 -0.6993096 2.900567
1.0458658 9.271862 4.3982105 12.721741 1.9020387 -40.802868 -11.231486 1.9049962
-12.9664 -27.404585 -0.82379335 -9.75815 -1.0626981 2.709945 0.6500532 8.366509
0.63293606 -8.0203705 -6.975473 2.5012052 -11.877777 -4.576358 -1.8799505 -4.5449505
-3.8934631 11.405264 -4.3722115 3.1008587 1.9959472 -8.813483 -0.89487153 2.8517768
-6.229204 24.50361 -3.2933648 0.13904898 -2.377279 7.312774 3.4746017 -2.7687042
-0.774205 -34.216984 -0.38408616 -0.049683 -1.7362666 -32.192356 0.2744807 4.6963015
-0.3497703 1.1194235 -0.14657 3.8765576 -1.9447982 -5.1472073 -1.1888709 0.059878834
-0.14678022 -0.39659327 0.430485 2.4413908 -0.6083937 3.4398546 -0.81679714 2.8869913
1.260687 -15.358636 -0.24485679 -2.2983797 -0.23120716 3.8849025 0.47181284 1.1596187
1.9664491 2.2614136 -3.0134664 0.11196347 1.818701 5.8411674 0.3452376 -0.32687747
1.5580413 18.320633 -0.23994161 -3.184403 1.3138076 1.4540843 0.45404923 2.2797966
1.7951579 -4.9734845 0.24906278 -0.6576915 -0.4546399 0.9120117 -0.42213127 -4.426529
0.41699466 4.9067383 0.5041208 0.2114939 0.99781317 -14.982432 -0.29673177 -5.770781
0.70743424 15.532129 -1.5546377 0.98108864 0.47133264 7.2835135 0.8201916 -1.1588821
1.8638763 -8.383268 0.43642578 -2.9029112 0.5985866 -7.8801665 -2.409529 -1.6461552
00000000: 19aa cebe 06ea c640 f87c 863f 13f0 e43e
00000010: dca2 2ac0 023a 43c2 36af 303d 9735 373d
00000020: 2613 eabd 140f 9abf 11c6 b7bf 389f e23d
00000030: 24d1 37be e360 98c0 fd38 ea3e 8300 70bd
00000040: c972 b5c0 a736 6e41 964b a73e a872 9940
00000050: 992d eebe 9a96 26c0 f405 33bf e4a2 3940
00000060: eede 853f 8c59 1441 24be 8c40 408c 4b41
00000070: 0176 f33f 2336 23c2 2bb4 33c1 ead6 f33f
00000080: 6076 4fc1 973c dbc1 1fe4 52bf 6221 1cc1
00000090: 7e06 88bf bd6f 2d40 e369 263f 39dd 0541
000000a0: 1908 223f 7053 00c1 1337 dfc0 bf13 2040
000000b0: 600b 3ec1 8671 92c0 38a2 f0bf 3c70 91c0
000000c0: 802e 79c0 f67b 3641 28e9 8bc0 7874 4640
000000d0: 337b ff3f 0704 0dc1 4d16 65bf 8383 3640
000000e0: a455 c7c0 6507 c441 7dc6 52c0 db62 0e3e
000000f0: 5725 18c0 3f02 ea40 e05f 5e40 7332 31c0
00000100: 4d32 46bf 31de 08c2 f1a6 c4be 6780 4bbd
00000110: fc3d debf f9c4 00c2 bc88 8c3e 1a48 9640
00000120: 1815 b3be 4549 8f3f 7216 16be 8519 7840
00000130: 26ef f8bf ecb5 a4c0 ec2c 98bf 8243 753d
00000140: 8e4d 16be 460e cbbe 8868 dc3e bf3f 1c40
00000150: b1bf 1bbf 9426 5c40 9e19 51bf 77c4 3840
00000160: 315e a13f f9bc 75c1 bdbb 7abe a718 13c0
00000170: 92c1 6cbe 3ea2 7840 7491 f13e 636e 943f
00000180: 9bb4 fb3f 00bb 1040 a2dc 40c0 1b4d e53d
00000190: 32cb e83f d8ea ba40 fcc2 b03e 7c5c a7be
000001a0: e66d c73f a890 9241 41b3 75be 42cd 4bc0
000001b0: d92a a83f 6f1f ba3f 2479 e83e 30e8 1140
000001c0: bcc7 e53f c926 9fc0 500a 7f3e 785e 28bf
000001d0: 90c6 e8be 9979 693f 9721 d8be 20a6 8dc0
000001e0: 5380 d53e 0004 9d40 100e 013f db91 583e
000001f0: af70 7f3f 0bb8 6fc1 3aed 97be 3daa b8c0
00000200: 691a 353f 9a83 7841 5efe c6bf a028 7b3f
00000210: 8352 f13e 8b12 e940 14f8 513f 4056 94bf
00000220: 8093 ee3f de21 06c1 3373 df3e 4cc9 39c0
00000230: f93c 193f 532a fcc0 b935 1ac0 37b5 d2bf

bias f4 [12]
9.8166895 -0.856261 -4.9360294 -1.4991649 0.22691296 -2.1798174 -1.0768248 0.91415596
0.24224937 -0.22796062 -2.2709556 -1.5079582
00000000: 2911 1d41 ec33 5bbf f4f3 9dc0 a3e4 bfbf
00000010: df5b 683e 2182 0bc0 65d5 89bf 2006 6a3f
00000020: 3810 783e 826e 69be 5657 11c0 c604 c1bf

weight f4 [1, 12]
-3.5919507 2.7141972 -24.646769 9.333676 -0.82418245 1.901744 4.941365 -1.5247766
2.7614253 -4.983508 -15.543957 -6.9687057
00000000: 85e2 65c0 68b5 2d40 952c c5c1 bd56 1541
00000010: 9ffd 52bf 596c f33f a91f 9e40 e12b c3bf
00000020: 31bb 3040 e678 9fc0 0cb4 78c1 a3ff dec0
